…
 dataset using vocab of dataloaders in model. . labels = model.dls.vocab . It&#39;s very important to understand what&#39;s in a model? Using get_submodule in pytorch we can look at the various neural networks, what is their input and ouput and each layers. [21:24] . Let&#39;s explore the architecture of a translation model which translates from their target form to english. . from transformers import AutoModelForSeq2SeqLM model = AutoModelForSeq2SeqLM.from_pretrained(&quot;Helsinki-NLP/opus-mt-mul-en&quot;) . Looking at model architecture . model . MarianMTModel( (model): MarianModel( (shared): Embedding(64172, 512, padding_idx=64171) (encoder): MarianEncoder( (embed_tokens): Embedding(64172, 512, padding_idx=64171) (embed_positions): MarianSinusoidalPositionalEmbedding(512, 512) (layers): ModuleList( (0): MarianEncoderLayer( (self_attn): MarianAttention( (k_proj): Linear(in_features=512, out_features=512, bias=True) (v_proj): Linear(in_features=512, out_features=512, bias=True) (q_proj): Linear(in_features=512, out_features=512, bias=True) (out_proj): Linear(in_features=512, out_features=512, bias=True) ) (self_attn_layer_norm): LayerNorm((512,), eps=1e-05, elementwise_affine=True) (activation_fn): SiLUActivation() (fc1): Linear(in_features=512, out_features=2048, bias=True) (fc2): Linear(in_features=2048, out_features=512, bias=True) (final_layer_norm): LayerNorm((512,), eps=1e-05, elementwise_affine=True) ) (1): MarianEncoderLayer( (self_attn): MarianAttention( (k_proj): Linear(in_features=512, out_features=512, bias=True) (v_proj): Linear(in_features=512, out_features=512, bias=True) (q_proj): Linear(in_features=512, out_features=512, bias=True) (out_proj): Linear(in_features=512, out_features=512, bias=True) ) (self_attn_layer_norm): LayerNorm((512,), eps=1e-05, elementwise_affine=True) (activation_fn): SiLUActivation() (fc1): Linear(in_features=512, out_features=2048, bias=True) (fc2): Linear(in_features=2048, out_features=512, bias=True) (final_layer_norm): LayerNorm((512,), eps=1e-05, elementwise_affine=True) ) (2): MarianEncoderLayer( (self_attn): MarianAttention( (k_proj): Linear(in_features=512, out_features=512, bias=True) (v_proj): Linear(in_features=512, out_features=512, bias=True) (q_proj): Linear(in_features=512, out_features=512, bias=True) (out_proj): Linear(in_features=512, out_features=512, bias=True) ) (self_attn_layer_norm): LayerNorm((512,), eps=1e-05, elementwise_affine=True) (activation_fn): SiLUActivation() (fc1): Linear(in_features=512, out_features=2048, bias=True) (fc2): Linear(in_features=2048, out_features=512, bias=True) (final_layer_norm): LayerNorm((512,), eps=1e-05, elementwise_affine=True) ) (3): MarianEncoderLayer( (self_attn): MarianAttention( (k_proj): Linear(in_features=512, out_features=512, bias=True) (v_proj): Linear(in_features=512, out_features=512, bias=True) (q_proj): Linear(in_features=512, out_features=512, bias=True) (out_proj): Linear(in_features=512, out_features=512, bias=True) ) (self_attn_layer_norm): LayerNorm((512,), eps=1e-05, elementwise_affine=True) (activation_fn): SiLUActivation() (fc1): Linear(in_features=512, out_features=2048, bias=True) (fc2): Linear(in_features=2048, out_features=512, bias=True) (final_layer_norm): LayerNorm((512,), eps=1e-05, elementwise_affine=True) ) (4): MarianEncoderLayer( (self_attn): MarianAttention( (k_proj): Linear(in_features=512, out_features=512, bias=True) (v_proj): Linear(in_features=512, out_features=512, bias=True) (q_proj): Linear(in_features=512, out_features=512, bias=True) (out_proj): Linear(in_features=512, out_features=512, bias=True) ) (self_attn_layer_norm): LayerNorm((512,), eps=1e-05, elementwise_affine=True) (activation_fn): SiLUActivation() (fc1): Linear(in_features=512, out_features=2048, bias=True) (fc2): Linear(in_features=2048, out_features=512, bias=True) (final_layer_norm): LayerNorm((512,), eps=1e-05, elementwise_affine=True) ) (5): MarianEncoderLayer( (self_attn): MarianAttention( (k_proj): Linear(in_features=512, out_features=512, bias=True) (v_proj): Linear(in_features=512, out_features=512, bias=True) (q_proj): Linear(in_features=512, out_features=512, bias=True) (out_proj): Linear(in_features=512, out_features=512, bias=True) ) (self_attn_layer_norm): LayerNorm((512,), eps=1e-05, elementwise_affine=True) (activation_fn): SiLUActivation() (fc1): Linear(in_features=512, out_features=2048, bias=True) (fc2): Linear(in_features=2048, out_features=512, bias=True) (final_layer_norm): LayerNorm((512,), eps=1e-05, elementwise_affine=True) ) ) ) (decoder): MarianDecoder( (embed_tokens): Embedding(64172, 512, padding_idx=64171) (embed_positions): MarianSinusoidalPositionalEmbedding(512, 512) (layers): ModuleList( (0): MarianDecoderLayer( (self_attn): MarianAttention( (k_proj): Linear(in_features=512, out_features=512, bias=True) (v_proj): Linear(in_features=512, out_features=512, bias=True) (q_proj): Linear(in_features=512, out_features=512, bias=True) (out_proj): Linear(in_features=512, out_features=512, bias=True) ) (activation_fn): SiLUActivation() (self_attn_layer_norm): LayerNorm((512,), eps=1e-05, elementwise_affine=True) (encoder_attn): MarianAttention( (k_proj): Linear(in_features=512, out_features=512, bias=True) (v_proj): Linear(in_features=512, out_features=512, bias=True) (q_proj): Linear(in_features=512, out_features=512, bias=True) (out_proj): Linear(in_features=512, out_features=512, bias=True) ) (encoder_attn_layer_norm): LayerNorm((512,), eps=1e-05, elementwise_affine=True) (fc1): Linear(in_features=512, out_features=2048, bias=True) (fc2): Linear(in_features=2048, out_features=512, bias=True) (final_layer_norm): LayerNorm((512,), eps=1e-05, elementwise_affine=True) ) (1): MarianDecoderLayer( (self_attn): MarianAttention( (k_proj): Linear(in_features=512, out_features=512, bias=True) (v_proj): Linear(in_features=512, out_features=512, bias=True) (q_proj): Linear(in_features=512, out_features=512, bias=True) (out_proj): Linear(in_features=512, out_features=512, bias=True) ) (activation_fn): SiLUActivation() (self_attn_layer_norm): LayerNorm((512,), eps=1e-05, elementwise_affine=True) (encoder_attn): MarianAttention( (k_proj): Linear(in_features=512, out_features=512, bias=True) (v_proj): Linear(in_features=512, out_features=512, bias=True) (q_proj): Linear(in_features=512, out_features=512, bias=True) (out_proj): Linear(in_features=512, out_features=512, bias=True) ) (encoder_attn_layer_norm): LayerNorm((512,), eps=1e-05, elementwise_affine=True) (fc1): Linear(in_features=512, out_features=2048, bias=True) (fc2): Linear(in_features=2048, out_features=512, bias=True) (final_layer_norm): LayerNorm((512,), eps=1e-05, elementwise_affine=True) ) (2): MarianDecoderLayer( (self_attn): MarianAttention( (k_proj): Linear(in_features=512, out_features=512, bias=True) (v_proj): Linear(in_features=512, out_features=512, bias=True) (q_proj): Linear(in_features=512, out_features=512, bias=True) (out_proj): Linear(in_features=512, out_features=512, bias=True) ) (activation_fn): SiLUActivation() (self_attn_layer_norm): LayerNorm((512,), eps=1e-05, elementwise_affine=True) (encoder_attn): MarianAttention( (k_proj): Linear(in_features=512, out_features=512, bias=True) (v_proj): Linear(in_features=512, out_features=512, bias=True) (q_proj): Linear(in_features=512, out_features=512, bias=True) (out_proj): Linear(in_features=512, out_features=512, bias=True) ) (encoder_attn_layer_norm): LayerNorm((512,), eps=1e-05, elementwise_affine=True) (fc1): Linear(in_features=512, out_features=2048, bias=True) (fc2): Linear(in_features=2048, out_features=512, bias=True) (final_layer_norm): LayerNorm((512,), eps=1e-05, elementwise_affine=True) ) (3): MarianDecoderLayer( (self_attn): MarianAttention( (k_proj): Linear(in_features=512, out_features=512, bias=True) (v_proj): Linear(in_features=512, out_features=512, bias=True) (q_proj): Linear(in_features=512, out_features=512, bias=True) (out_proj): Linear(in_features=512, out_features=512, bias=True) ) (activation_fn): SiLUActivation() (self_attn_layer_norm): LayerNorm((512,), eps=1e-05, elementwise_affine=True) (encoder_attn): MarianAttention( (k_proj): Linear(in_features=512, out_features=512, bias=True) (v_proj): Linear(in_features=512, out_features=512, bias=True) (q_proj): Linear(in_features=512, out_features=512, bias=True) (out_proj): Linear(in_features=512, out_features=512, bias=True) ) (encoder_attn_layer_norm): LayerNorm((512,), eps=1e-05, elementwise_affine=True) (fc1): Linear(in_features=512, out_features=2048, bias=True) (fc2): Linear(in_features=2048, out_features=512, bias=True) (final_layer_norm): LayerNorm((512,), eps=1e-05, elementwise_affine=True) ) (4): MarianDecoderLayer( (self_attn): MarianAttention( (k_proj): Linear(in_features=512, out_features=512, bias=True) (v_proj): Linear(in_features=512, out_features=512, bias=True) (q_proj): Linear(in_features=512, out_features=512, bias=True) (out_proj): Linear(in_features=512, out_features=512, bias=True) ) (activation_fn): SiLUActivation() (self_attn_layer_norm): LayerNorm((512,), eps=1e-05, elementwise_affine=True) (encoder_attn): MarianAttention( (k_proj): Linear(in_features=512, out_features=512, bias=True) (v_proj): Linear(in_features=512, out_features=512, bias=True) (q_proj): Linear(in_features=512, out_features=512, bias=True) (out_proj): Linear(in_features=512, out_features=512, bias=True) ) (encoder_attn_layer_norm): LayerNorm((512,), eps=1e-05, elementwise_affine=True) (fc1): Linear(in_features=512, out_features=2048, bias=True) (fc2): Linear(in_features=2048, out_features=512, bias=True) (final_layer_norm): LayerNorm((512,), eps=1e-05, elementwise_affine=True) ) (5): MarianDecoderLayer( (self_attn): MarianAttention( (k_proj): Linear(in_features=512, out_features=512, bias=True) (v_proj): Linear(in_features=512, out_features=512, bias=True) (q_proj): Linear(in_features=512, out_features=512, bias=True) (out_proj): Linear(in_features=512, out_features=512, bias=True) ) (activation_fn): SiLUActivation() (self_attn_layer_norm): LayerNorm((512,), eps=1e-05, elementwise_affine=True) (encoder_attn): MarianAttention( (k_proj): Linear(in_features=512, out_features=512, bias=True) (v_proj): Linear(in_features=512, out_features=512, bias=True) (q_proj): Linear(in_features=512, out_features=512, bias=True) (out_proj): Linear(in_features=512, out_features=512, bias=True) ) (encoder_attn_layer_norm): LayerNorm((512,), eps=1e-05, elementwise_affine=True) (fc1): Linear(in_features=512, out_features=2048, bias=True) (fc2): Linear(in_features=2048, out_features=512, bias=True) (final_layer_norm): LayerNorm((512,), eps=1e-05, elementwise_affine=True) ) ) ) ) (lm_head): Linear(in_features=512, out_features=64172, bias=False) ) . . Looking at layer 1 self_attn_layer_norm . attention_layer = model.get_submodule(&#39;model.encoder.layers.0.self_attn_layer_norm&#39;) list(attention_layer.parameters()) . [Parameter containing: tensor([… requires_grad=True), Parameter containing: tensor([ … requires_grad=True)] . . Looking at shape of last layer . final = model.get_submodule(
…
